…
net = Dropout(0.25)(net)

# 출력층 구성하기
net = Dense(num_classes)(net)
net = Activation('softmax')(net)

# 계산 그래프 그리기
model = tf.keras.Model(inputs = inputs, outputs = net, name = 'CNN')


```


```python
model.summary()
```

    Model: "CNN"
    _________________________________________________________________
    Layer (type)                 Output Shape              Param #   
    =================================================================
    input_1 (InputLayer)         [(None, 28, 28, 1)]       0         
    _________________________________________________________________
    conv2d_3 (Conv2D)            (None, 28, 28, 32)        320       
    _________________________________________________________________
    activation (Activation)      (None, 28, 28, 32)        0         
    _________________________________________________________________
    conv2d_4 (Conv2D)            (None, 28, 28, 32)        9248      
    _________________________________________________________________
    activation_1 (Activation)    (None, 28, 28, 32)        0         
    _________________________________________________________________
    max_pooling2d_1 (MaxPooling2 (None, 14, 14, 32)        0         
    _________________________________________________________________
    dropout (Dropout)            (None, 14, 14, 32)        0         
    _________________________________________________________________
    conv2d_5 (Conv2D)            (None, 14, 14, 64)        18496     
    _________________________________________________________________
    activation_2 (Activation)    (None, 14, 14, 64)        0         
    _________________________________________________________________
    conv2d_6 (Conv2D)            (None, 14, 14, 64)        36928     
    _________________________________________________________________
    activation_3 (Activation)    (None, 14, 14, 64)        0         
    _________________________________________________________________
    max_pooling2d_2 (MaxPooling2 (None, 7, 7, 64)          0         
    _________________________________________________________________
    dropout_1 (Dropout)          (None, 7, 7, 64)          0         
    _________________________________________________________________
    flatten_1 (Flatten)          (None, 3136)              0         
    _________________________________________________________________
    dense_2 (Dense)              (None, 512)               1606144   
    _________________________________________________________________
    activation_4 (Activation)    (None, 512)               0         
    _________________________________________________________________
    dropout_2 (Dropout)          (None, 512)               0         
    _________________________________________________________________
    dense_3 (Dense)              (None, 10)                5130      
    _________________________________________________________________
    activation_5 (Activation)    (None, 10)                0         
    =================================================================
    Total params: 1,676,266
    Trainable params: 1,676,266
    Non-trainable params: 0
    _________________________________________________________________
    

# 최적화 선정하기
- Loss Function ( 손실 함수 ) - MSE, CEE를 쓸지 등등..
- Optimization ( 최적화 함수) - SGD, ADAM, RMSProps를 쓸지..
- Metrics ( 테스트 세트에 대한 평가 기준)

## Loss Function 선정 기준
…
